…
            "WARNING:tensorflow:From /usr/local/lib/python3.6/dist-packages/keras/backend/tensorflow_backend.py:3733: calling dropout (from tensorflow.python.ops.nn_ops) with keep_prob is deprecated and will be removed in a future version.\n",
            "Instructions for updating:\n",
            "Please use `rate` instead of `keep_prob`. Rate should be set to `rate = 1 - keep_prob`.\n",
            "Model: \"sequential_1\"\n",
            "_________________________________________________________________\n",
            "Layer (type)                 Output Shape              Param #   \n",
            "=================================================================\n",
            "conv2d_1 (Conv2D)            (None, 73, 98, 8)         224       \n",
            "_________________________________________________________________\n",
            "max_pooling2d_1 (MaxPooling2 (None, 36, 49, 8)         0         \n",
            "_________________________________________________________________\n",
            "dropout_1 (Dropout)          (None, 36, 49, 8)         0         \n",
            "_________________________________________________________________\n",
            "conv2d_2 (Conv2D)            (None, 34, 47, 16)        1168      \n",
            "_________________________________________________________________\n",
            "max_pooling2d_2 (MaxPooling2 (None, 17, 23, 16)        0         \n",
            "_________________________________________________________________\n",
            "dropout_2 (Dropout)          (None, 17, 23, 16)        0         \n",
            "_________________________________________________________________\n",
            "flatten_1 (Flatten)          (None, 6256)              0         \n",
            "_________________________________________________________________\n",
            "dense_1 (Dense)              (None, 32)                200224    \n",
            "_________________________________________________________________\n",
            "dropout_3 (Dropout)          (None, 32)                0         \n",
            "_________________________________________________________________\n",
            "dense_2 (Dense)              (None, 7)                 231       \n",
            "=================================================================\n",
            "Total params: 201,847\n",
            "Trainable params: 201,847\n",
            "Non-trainable params: 0\n",
            "_________________________________________________________________\n"
          ],
          "name": "stdout"
        }
      ]
    },
    {
      "cell_type": "code",
      "metadata": {
…
